deep-learning-inference/models/converted_model_1.tflite (tflite, 408152 bytes, 4 tensors)

dense/MatMul_bias f4 [128]
0.09861336 -0.03976347 0.061211288 0.18598564 -0.15876788 -0.010857346 0.19412832 0.20476356
-0.012109096 0.07528582 0.05635831 -0.051575515 -0.024796788 -0.08818991 0.22147472 0.009228284
-0.0179849 0.20792131 0.10680414 0.002019961 -0.047950786 0.20012785 -0.054332048 0.13934745
0.008420226 -0.020476004 0.09657829 -0.1461557 0.019742861 0.083489545 0.07590484 -0.033708695
-0.11402587 -0.08336534 -0.0132816555 0.20374848 0.09989584 -0.08539331 -0.035339393 -0.013910304
-0.23691295 0.026944194 0.122934915 -0.00989901 0.14275531 0.10483141 0.28860894 -0.009136235
-0.005255747 0.18853152 -0.07787759 0.065068536 0.2969377 -0.01927177 -0.04315825 -0.017994342
0.21795931 0.24322613 -0.10694549 0.079314105 -0.05284965 -0.05190881 -0.024797944 0.2046548
0.030827692 0.04249368 -0.040205594 0.12076228 0.15214585 0.19253609 0.0790712 -0.07571593
-0.17201243 -0.1024009 0.061036788 0.15012383 0.09561819 -0.037627753 0.11226396 0.18432674
-0.012328554 0.16149332 -0.052583683 -0.022213176 0.007905612 -0.21439321 0.09201962 0.13314112
0.027592098 -0.12004491 -0.08674442 -0.1698257 -0.010393086 0.24946281 -0.059210848 0.16998586
0.10592883 0.22030385 0.0062591424 0.008558975 0.1315027 0.0011846481 0.021533033 -0.016918901
-0.023392046 0.24322684 -0.019588342 0.21245803 -0.016338475 0.059544146 -0.14347857 0.09856374
0.07206302 -0.017091068 0.14981508 0.03085831 0.07381029 -0.13219993 0.044895954 -0.15840599
0.02356494 0.09207085 -0.008189866 0.014623096 -0.030338937 0.06765478 0.18424289 0.07288941
00000000: cdf5 c93d 05df 22bd b0b8 7a3d 0573 3e3e
00000010: 0c94 22be 02e3 31bc 93c9 463e 8aad 513e
00000020: 3b65 46bc 742f 9a3d f9d7 663d d940 53bd
00000030: a222 cbbc e99c b4bd 45ca 623e 3a32 173c
00000040: 1255 93bc 53e9 543e 21bc da3d 5261 043b
00000050: 0b68 44bd 51ee 4c3e 488b 5ebd 19b1 0e3e
00000060: fdf4 093c 4bbd a7bc d7ca c53d d7a9 15be
00000070: c8bb a13c 91fc aa3d ff73 9b3d 2112 0abd
00000080: 6586 e9bd 73bb aabd 4d9b 59bc 71a3 503e
00000090: 3196 cc3d b0e2 aebd 0ac0 10bd 0be8 63bc
000000a0: 4f99 72be 12ba dc3c 4dc5 fb3d 752f 22bc
000000b0: 732e 123e dab1 d63d 8dc4 933e 26b0 15bc
000000c0: 6738 acbb 680e 413e 497e 9fbd a742 853d
000000d0: 3808 983e d5df 9dbc b5c6 30bd df68 93bc
000000e0: ba30 5f3e 4510 793e 3d06 dbbd 6f6f a23d
000000f0: e078 58bd 559e 54bd 0f25 cbbc 0791 513e
00000100: 5b8a fc3c da0d 2e3d 9fae 24bd 3752 f73d
00000110: 1fcc 1b3e 2e28 453e 15f0 a13d f410 9bbd
00000120: 0724 30be 90b7 d1bd b601 7a3d 10ba 193e
00000130: 78d3 c33d 8f1f 1abd a6ea e53d 26c0 3c3e
00000140: b4fd 49bc 815e 253e fd61 57bd 68f8 b5bc
00000150: 8a86 013c e589 5bbe c874 bc3d 2556 083e
00000160: d308 e23c 1bda f5bd 0fa7 b1bd cae6 2dbe
00000170: c347 2abc 2e73 7f3e 1387 72bd c610 2e3e
00000180: 37f1 d83d 5597 613e 7e19 cd3b f13a 0c3c
00000190: a5a8 063e 3246 9b3a 0b66 b03c 8299 8abc
000001a0: ada0 bfbc 7510 793e bb77 a0bc 998e 593e
000001b0: 44d8 85bc 90e4 733d 0cec 12be c9db c93d
000001c0: c795 933d 9102 8cbc 2069 193e 91ca fc3c
000001d0: d929 973d 6b5f 07be d2e4 373d 2e35 22be
000001e0: 430b c13c a48f bc3d ca2e 06bc b695 6f3c
000001f0: 5d89 f8bc 978e 8a3d 2baa 3c3e 0b47 953d

dense/kernel/transpose f4 [128, 784]
-0.028399773 0.12240499 0.024835246 0.0180379 -0.060033847 -0.12583606 -0.15582018 -0.15913396
0.048136123 0.10235285 -0.06777693 0.0793498 -0.014863184 -0.01225067 -0.112851135 -0.056330662
0.036625005 -0.019881712 0.13984919 0.0487476 -0.026925102 -0.06665657 -0.14888988 -0.10815383
-0.045350615 0.02694969 -0.058186352 0.028582947 0.0107334815 0.07012332 0.040984128 -0.017059697
0.0052180933 -0.031426586 -0.1721798 0.0125835035 0.07791187 -0.062207654 0.04631016 0.024481185
0.13580792 0.15319131 0.08556105 0.14569885 0.12008306 0.11305367 0.046659045 0.11872035
0.11955146 0.04127271 0.015802464 0.026171973 -0.022602491 0.02618642 -0.0068161134 -0.07518244
0.012481765 -0.07130621 -0.046093855 0.038187187 -0.010947492 -0.015932694 0.098438375 0.10351452
-0.038593333 0.075042576 0.118119374 0.007837064 0.0679951 0.13021933 0.10263455 0.17612574
0.052479647 0.09230363 0.06430852 0.10938759 0.14369968 0.19195291 0.14298028 0.15352972
0.0030086234 0.051771026 0.018400785 -0.017260203 0.0021636067 0.057179447 0.08991153 0.07992423
0.07724998 0.029571624 -0.009393424 -0.08638339 0.041819632 0.03486127 0.027993115 -0.030333828
0.10813006 0.03218148 0.005164991 -0.0009909889 -0.022258703 -0.03232113 0.07477392 0.08592825
-0.03364475 0.047670938 0.056215324 0.113500305 0.13273393 0.061996363 -0.050884116 0.01096225
0.06343819 0.021523818 0.020301474 0.14997384 0.12153015 0.10475278 0.024593713 -0.013398264
0.0450307 0.10342305 -0.07234429 0.060759872 0.0472575 0.09022475 0.00808845 0.00092442485
-0.045207854 -0.061077267 0.055804726 0.030963525 0.014683667 -0.029786479 0.14412096 0.15568121
0.15658472 0.14418285 0.057963125 0.0062672603 0.08217123 0.08332079 -0.01883912 0.04767451
0.13289055 0.12309441 0.06524783 -0.09998089 0.01211257 -0.030697156 0.042608406 -0.037489988
0.023148306 0.0106174275 0.070679314 0.03335907 -0.020997431 0.014214563 -0.06000552 0.09870709
-0.09755538 0.0091619855 0.12630631 0.07073425 0.073394746 0.15393923 0.009908053 0.063612245
0.060835138 0.025112169 0.053778972 0.13975064 0.17893513 0.12322809 -0.016888998 0.037906416
0.09823583 -0.0075453916 0.005238555 0.06320994 0.043891884 0.088940814 0.08214316 -0.0558797
0.01504742 0.027510842 -0.00696726 0.09229252 -0.015459707 0.029860392 0.13678242 0.16679953
0.13246383 0.07363864 0.006043303 0.020485748 0.08195135 0.128734 0.065926775 0.13205308
0.11521586 0.15789561 -0.03575 0.0009916226 0.05838163 0.07414408 0.06370737 0.015645208
0.0020044683 -0.020717327 0.027591052 0.036335886 0.060862195 0.051077873 0.099153325 0.0747421
0.0059067793 0.006266811 0.003651283 0.045908954 0.10610812 0.10583975 0.10566428 -0.03442824
0.00835189 0.0016681782 0.10190943 0.10124479 0.14331587 0.16993733 0.08775142 0.09392012
0.11108153 0.06743007 -0.05608737 -0.03690326 0.060605135 -0.0014433947 -0.06323229 -0.033924267
-0.032240205 0.02183681 -0.027065078 0.042560805 -0.042070817 0.046581034 -0.024429118 0.07361342
0.21177274 0.12315374 0.12095765 0.068533346 0.08379161 -0.016918147 0.039711967 0.15791985
00000000: a4a6 e8bc 78af fa3d 4973 cb3c 38c4 933c
00000010: 0de6 75bd 2bdb 00be 538f 1fbe 03f4 22be
00000020: 622a 453d 5f9e d13d a2ce 8abd 2682 a23d
00000030: b684 73bc 09b7 48bc 7f1e e7bd fbba 66bd
00000040: 1a04 163d f9de a2bc a034 0f3e 90ab 473d
00000050: 0892 dcbc 3d83 88bd 9776 18be c17f ddbd
00000060: 91c1 39bd 99c5 dc3c d054 6ebd c926 ea3c
00000070: 7cdb 2f3c d19c 8f3d f9de 273d c7c0 8bbc
00000080: 8afc aa3b 2ab9 00bd e74f 30be 0a2b 4e3c
00000090: 4290 9f3d 74cd 7ebd b9af 3d3d c48c c83c
000000a0: 3b11 0b3e 2fde 1c3e a23a af3d 1432 153e
000000b0: 1bee f53d af88 e73d 8e1d 3f3d a823 f33d
000000c0: 65d7 f43d 930d 293d 2b74 813c 9b66 d63c
000000d0: dc28 b9bc e784 d63c b459 dfbb 40f9 99bd
000000e0: 5180 4c3c fd08 92bd e9cc 3cbd 2b6a 1c3d
000000f0: 1c5d 33bc 4885 82bc 0f9a c93d 6cff d33d
00000100: 0b14 1ebd ecaf 993d 92e8 f13d 0767 003c
00000110: 0441 8b3d 3758 053e 1032 d23d 4e5a 343e
00000120: e6f4 563d b009 bd3d 2fb4 833d 9a06 e03d
00000130: 0226 133e 4e8f 443e 6c69 123e e536 1d3e
00000140: 532c 453b db0d 543d 3ebd 963c 4565 8dbc
00000150: 4ccb 0d3b ff34 6a3d 8923 b83d 51af a33d
00000160: 3d35 9e3d 3140 f23c e0e6 19bc c6e9 b0bd
00000170: 104b 2b3d b1ca 0e3d d151 e53c a67e f8bc
00000180: 4b73 dd3d bad0 033d 163f a93b 12e4 81ba
00000190: e257 b6bc 2963 04bd 1223 993d 26fb af3d
000001a0: 14cf 09bd 9a42 433d 0a42 663d d972 e83d
000001b0: 67eb 073e e6ef 7d3d dd6b 50bd 029b 333c
000001c0: e2eb 813d b852 b03c 474f a63c be92 193e
000001d0: cde4 f83d a088 d63d c178 c93c 6484 5bbc
000001e0: 1c72 383d 77cf d33d 3e29 94bd 58df 783d
000001f0: 1591 413d c1c7 b83d 6b85 043c 1a55 723a
00000200: df2b 39bd 282c 7abd 7f93 643d 38a7 fd3c
00000210: c393 703c c602 f4bc 7294 133e e56a 1f3e
00000220: bf57 203e aba4 133e be6a 6d3d 975d cd3b
00000230: 6449 a83d 17a4 aa3d 8054 9abc 5946 433d
00000240: 7614 083e ec18 fc3d a7a0 853d c8c2 ccbd
00000250: cd73 463c 9a78 fbbc 2786 2e3d 1a8f 19bd
00000260: 84a1 bd3c b8f4 2d3c 51c0 903d 85a3 083d
00000270: ce02 acbc 33e4 683c 59c8 75bd f126 ca3d
00000280: 1dcb c7bd 271c 163c 7156 013e 1edd 903d
00000290: fc4f 963d 3fa2 1d3e 6355 223c 2347 823d
000002a0: 442e 793d 09b8 cd3c 5747 5c3d cb1a 0f3e
000002b0: c53a 373e 025f fc3d cc5a 8abc c243 1b3d
000002c0: de2f c93d 553f f7bb 2fa8 ab3b 3774 813d
000002d0: fac7 333d 9a26 b63d ac3a a83d 1de2 64bd
000002e0: 7489 763c 6b5e e13c 9d4d e4bb dc03 bd3d
000002f0: b64a 7dbc c89d f43c b110 0c3e 7fcd 2a3e
00000300: 99a4 073e dbcf 963d e606 c63b bad1 a73c
00000310: 1cd6 a73d d8d2 033e 9e04 873d ec38 073e
00000320: 4bf6 eb3d 63af 213e 986e 12bd 55f9 813a
00000330: 9321 6f3d dad8 973d 0279 823d 612a 803c
00000340: 665d 033b 62b7 a9bc a106 e23c f0d4 143d
00000350: a34a 793d 0837 513d e610 cb3d 6312 993d
00000360: a88d c13b d259 cd3b 5d4a 6f3b 070b 3c3d
00000370: 374f d93d 83c2 d83d 8466 d83d a004 0dbd
00000380: 5ed6 083c c6a6 da3a e4b5 d03d 6e59 cf3d
00000390: 65c1 123e 0d04 2e3e 04b7 b33d 3159 c03d
000003a0: b77e e33d c718 8a3d dfbb 65bd df27 17bd
000003b0: 173d 783d 4a30 bdba ee7f 81bd 2cf4 0abd
000003c0: 4e0e 04bd 1ce3 b23c 95b7 ddbc 3d54 2e3d
000003d0: 7352 2cbd c1cb 3e3d 931f c8bc a2c2 963d
000003e0: f4da 583e 0738 fc3d a5b8 f73d 365b 8c3d
000003f0: f09a ab3d ed97 8abc 04a9 223d beb5 213e

dense_1/MatMul_bias f4 [10]
0.058086067 -0.0939333 0.020718988 0.06096277 -0.15321931 0.2392864 0.06787627 0.01947663
-0.12076031 -0.23098806
00000000: a8eb 6d3d 1a60 c0bd deba a93c 19b4 793d
00000010: 86e5 1cbe 7e07 753e b702 8b3d 748d 9f3c
00000020: 2e51 f7bd 2288 6cbe

dense_1/kernel/transpose f4 [10, 128]
0.2536737 -0.123745605 -0.1067901 0.17033443 0.05681606 -0.006613083 -0.15621406 0.1959291
0.016254347 0.16521534 -0.062916644 0.08608379 0.01733843 0.03290647 -0.15120104 -0.24545671
-0.19088082 0.031848222 -0.040101897 -0.07271091 0.15839657 -0.06330973 0.18190378 0.054546196
-0.16962638 -0.0671952 0.080809124 -0.083877586 0.005453409 -0.04028023 0.10125116 -0.16543208
-0.11431421 0.14420895 0.02527264 0.077149086 0.02023673 0.011384089 0.14384846 -0.093427695
-0.090376414 -0.12112894 0.032677613 -0.10276526 0.09574272 -0.0073657427 -0.12624165 0.082264826
-0.117197014 0.01070125 -0.040961314 0.20122205 0.11657137 -0.017084505 0.17613396 -0.086243
-0.050051793 -0.036453977 -0.07069173 -0.09890827 -0.022036871 0.05197132 0.16318206 0.13409637
-0.058377445 -0.12149541 -0.17857094 -0.0615048 0.22705984 -0.18572807 -0.04425594 0.05004672
-0.20448622 -0.043524444 0.041718505 0.07895936 -0.13469301 -0.2181488 -0.06007443 -0.15487836
-0.18510997 0.17653252 -0.036477 -0.11456221 -0.05984876 0.029663015 -0.12336804 0.1231601
0.065640606 -0.20070833 -0.22319831 -0.16599746 -0.08563865 0.035594758 0.015419583 -0.1354669
0.059144847 -0.016085332 0.057173558 -0.069074675 -0.04379815 -0.22904766 -0.111307554 -0.3384459
-0.19215275 0.09607498 -0.21954969 -0.27771136 -0.07095804 0.1923889 -0.007782578 -0.19794631
-0.26521423 -0.14063126 -0.21874548 0.14950056 0.05541407 -0.15247266 -0.16641293 -0.06709179
-0.04131851 0.12955166 -0.117182106 0.030255476 -0.14586367 -0.13312168 0.15231259 0.12949325
-0.2487903 0.015244813 -0.061369967 0.2268547 -0.15314631 0.331992 -0.3996677 -0.32113236
-0.047953542 0.09280242 0.032289594 -0.21658006 -0.12124683 0.16778874 -0.21864168 0.2901535
0.008398347 0.05160517 0.25691482 0.06569848 0.0048728734 0.09168118 0.044388972 -0.12923197
-0.054365143 0.060145207 -0.14381124 -0.02768836 0.121761456 -0.07685682 -0.25031427 -0.20179097
0.19313398 -0.23733762 0.117648244 -0.20020352 0.09103952 -0.1571654 0.25794986 0.15715265
0.24111639 0.16654861 0.115942925 -0.15301703 -0.083762504 -0.12663433 -0.15613525 0.15418985
0.12843855 -0.2017013 -0.12888584 -0.005375004 -0.31104827 -0.150123 -0.18738234 -0.27155665
-0.14730181 -0.27216735 0.21344358 0.27925292 -0.05774779 -0.10049008 -0.1260826 -0.24397197
-0.19880475 -0.1350248 -0.18295693 -0.18929975 -0.02124603 -0.3333797 -0.20314777 0.1990204
-0.030883616 -0.15264718 -0.19765332 -0.31433162 -0.31448808 -0.21520895 0.06737025 -0.109228656
-0.007455968 -0.16501021 -0.007944576 0.0036065655 -0.20010339 0.19021021 0.10322137 -0.12482095
0.00046836885 -0.15094975 -0.16166943 -0.29522398 -0.0034136507 0.18725018 -0.021048805 0.25558242
0.031602778 -0.28416833 0.14075457 0.03919384 -0.1507059 0.17685108 0.122878715 -0.11876895
-0.0014558707 -0.28869858 0.022006765 -0.48290083 0.008339531 0.10975642 0.14548415 0.1704485
-0.22694784 0.08536935 0.032797836 0.17193338 0.17727719 0.26957834 -0.113642834 -0.12891085
-0.27475047 -0.25022146 -0.08910084 0.21713366 0.12534827 -0.114863485 -0.031117512 -0.0542298
00000000: 85e1 813e 566e fdbd c5b4 dabd 266c 2e3e
00000010: f5b7 683d 90b2 d8bb 94f6 1fbe a3a1 483e
00000020: d627 853c 362e 293e 71da 80bd b34c b03d
00000030: 5309 8e3c efc8 063d 72d4 1abe 0159 7bbe
00000040: 4376 43be 4873 023d e341 24bd 75e9 94bd
00000050: b632 223e 88a8 81bd fc44 3a3e d56b 5f3d
00000060: 8ab2 2dbe a39d 89bd 417f a53d 03c8 abbd
00000070: 83b2 b23b e2fc 24bd c55c cf3d 0767 29be
00000080: 921d eabd 83ab 133e 9108 cf3c 5700 9e3d
00000090: 80c7 a53c 5484 3a3c 034d 133e 0557 bfbd
000000a0: 4517 b9bd 7312 f8bd f6d8 053d 9876 d2bd
000000b0: c214 c43d 545c f1bb 7e45 01be 767a a83d
000000c0: fd04 f0bd 4c54 2f3c 0dc7 27bd 270d 4e3e
000000d0: f8bc ee3d cef4 8bbc 765c 343e 2ca0 b0bd
000000e0: 1c03 4dbd c450 15bd d3c6 90bd 6b90 cabd
000000f0: ab86 b4bc e1df 543d 3319 273e 8f50 093e
00000100: 301d 6fbd 96d2 f8bd 4ddb 36be 75ec 7bbd
00000110: 6082 683e 802f 3ebe b745 35bd cafd 4c3d
00000120: d664 51be b046 32bd 06e1 2a3d 72b5 a13d
00000130: f7ec 09be 6662 5fbe 9b10 76bd 6f98 1ebe
00000140: 788d 3dbe f1c4 343e e868 15bd 989f eabd
00000150: f923 75bd daff f23c 62a8 fcbd 5d3b fc3d
00000160: 956e 863d 7c86 4dbe 198e 64be 3dfb 29be
00000170: 5163 afbd cfcb 113d 6ba2 7c3c d6b7 0abe
00000180: de41 723d 63c5 83bc d22e 6a3d 0677 8dbd
00000190: b065 33bd 788b 6abe 37f5 e3bd c848 adbe
000001a0: b1c3 44be f6c2 c43d a2d1 60be 2f30 8ebe
000001b0: 7352 91bd 9901 453e ff04 ffbb 70b2 4abe
000001c0: 29ca 87be a401 10be d1fe 5fbe ad16 193e
000001d0: ddf9 623d cb21 1cbe 2768 2abe 6c67 89bd
000001e0: 993d 29bd 31a9 043e 2cfd efbd 55da f73c
000001f0: 495d 15be 0d51 08be d5f7 1b3e e199 043e
00000200: e2c2 7ebe 61c5 793c 135f 7bbd 994c 683e
00000210: 63d2 1cbe dbfa a93e 3fa1 ccbe 766b a4be
00000220: ef6a 44bd 320f be3d 1842 043d 2ac7 5dbe
00000230: 4250 f8bd d0d0 2b3e 9be3 5fbe 008f 943e
00000240: 3899 093c f15f 533d 578a 833e ed8c 863d
00000250: a0ac 9f3b 58c3 bb3d 36d1 353d 6355 04be
00000260: fcad 5ebd d25a 763d 4143 13be b3d2 e2bc
00000270: 125e f93d 1c67 9dbd 3129 80be 4ba2 4ebe
00000280: eac4 453e a208 73be 90f1 f03d 2702 4dbe
00000290: ee72 ba3d f7ef 20be 0112 843e a0ec 203e
000002a0: 37e7 763e b88b 2a3e 7c73 ed3d 7fb0 1cbe
000002b0: ad8b abbd 6eac 01be ebe1 1fbe f2e3 1d3e
000002c0: 6585 033e c98a 4ebe a6fa 03be cd20 b0bb
000002d0: b841 9fbe d8b9 19be 28e1 3fbe 7909 8bbe
000002e0: 49d6 16be 8559 8bbe f490 5a3e 3dfa 8e3e
000002f0: f288 6cbd becd cdbd cc1b 01be cad3 79be
00000300: 7993 4bbe f143 0abe 1059 3bbe cbd7 41be
00000310: 280c aebc beb0 aabe f805 50be 01cc 4b3e
00000320: a3ff fcbc 8b4f 1cbe a265 4abe 13f0 a0be
00000330: 9504 a1be bc5f 5cbe 6af9 893d 46b3 dfbd
00000340: 3151 f4bb 70f8 28be f829 02bc 215c 6c3b
00000350: e7e7 4cbe 77c6 423e ba65 d33d 20a2 ffbd
00000360: 678f f539 9292 1abe ac8c 25be 9927 97be
00000370: 8eb7 5fbb 83be 3f3e 8b6e acbc b3db 823e
00000380: ea71 013d 837e 91be f721 103e b889 203d
00000390: a652 1abe 7318 353e d6a7 fb3d 233d f3bd
000003a0: ead2 beba 4dd0 93be 8847 b43c c73e f7be
000003b0: 87a2 083c f9c7 e03d ccf9 143e 0d8a 2e3e
000003c0: 0465 68be 20d6 ae3d 0657 063d 4e0f 303e
000003d0: 2788 353e 2c06 8a3e 93bd e8bd 3501 04be
000003e0: 18ac 8cbe 071d 80be 807a b6bd 4958 5e3e
000003f0: 4c5b 003e 8c3d ebbd 27ea febc 1120 5ebd
