deep-learning-inference/models/converted_model_2.tflite (tflite, 408152 bytes, 4 tensors)

dense/MatMul_bias f4 [128]
-0.0808525 0.10868333 -0.053085756 -0.014727212 -0.01432828 -0.048495885 -0.043743316 -0.04818739
-0.015136676 0.24494645 0.09400365 -0.147699 0.04834509 0.18556996 -0.016645668 -0.10703098
0.044903137 0.11032431 -0.031977825 -0.16592328 -0.028387083 0.059776977 -0.08265555 0.07172296
-0.05501051 0.19576092 0.1947024 0.26701203 0.1559192 0.04703666 -0.25602448 0.3042217
0.26531872 -0.0168085 0.0608962 0.033609167 -0.015511271 0.39737147 0.12406588 -0.015038796
0.20757039 0.33795968 0.15113159 0.22385913 -0.019814406 0.11105033 -0.03528557 0.13553305
0.03092457 0.114734955 0.16130269 0.041727606 -0.040967032 0.13034436 -0.07761016 -0.03271277
-0.17647848 0.23666084 0.09825731 -0.14623637 0.16635025 0.14215493 -0.010804168 0.11379182
-0.12721424 0.07575714 0.064582385 0.40609533 -0.018732486 0.38699323 0.04502042 0.111248806
0.20634186 0.27295634 -0.16086106 -0.048809353 -0.00027234273 -0.0113080945 0.07019296 0.30078167
-0.012600874 0.0035024022 -0.015995935 -0.018394683 0.101827405 0.27034265 0.14655332 0.32371357
0.14504184 0.11846036 0.17577921 0.12696429 0.034049444 0.4111555 0.13723177 -0.33662933
0.06254137 0.23463513 0.12992334 -0.28690663 0.0008799102 0.29834738 0.33064792 0.11171934
0.13096963 -0.29831773 0.07597709 0.1242976 -0.017853072 -0.07388994 0.003937936 0.19529815
-0.018657977 0.11537739 -0.12921032 0.20253472 -0.015662147 -0.013692471 -0.024029197 0.32954457
0.010017049 -0.049727947 0.10657546 0.08620338 0.102998555 0.064288124 -0.0025860223 0.15669625
00000000: ff95 a5bd 5e95 de3d 7370 59bd 674a 71bc
00000010: 2ac1 6abc 9fa3 46bd 312c 33bd 2460 45bd
00000020: d2ff 77bc 3ed3 7a3e fc84 c03d 683e 17be
00000030: 8005 463d 0d06 3e3e 7f5c 88bc 0f33 dbbd
00000040: 5aec 373d b6f1 e13d 2efb 02bd cbe7 29be
00000050: 078c e8bc b4d8 743d 5047 a9bd 7de3 923d
00000060: b352 61bd 8d75 483e 1160 473e cdb5 883e
00000070: 48a9 1f3e 83a9 403d a415 83be f2c2 9b3e
00000080: dbd7 873e fbb1 89bc 4b6e 793d c4a9 093d
00000090: fc22 7ebc 4674 cb3e 4116 fe3d 4865 76bc
000000a0: 558d 543e 0d09 ad3e 3dc2 1a3e 543b 653e
000000b0: d251 a2bc 5b6e e33d 9a87 10bd 2dc9 0a3e
000000c0: 8655 fd3c 29fa ea3d 882c 253e 91ea 2a3d
000000d0: 0ccd 27bd fe78 053e 13f2 9ebd d3fd 05bd
000000e0: c6b6 34be 3857 723e 213b c93d fdbe 15be
000000f0: b857 2a3e 1091 113e f703 31bc b00b e93d
00000100: 7344 02be 8f26 9b3d c543 843d baeb cf3e
00000110: df74 99bc fa23 c63e 5567 383d 6ad6 e33d
00000120: 484b 533e efc0 8b3e c3b8 24be 51ec 47bd
00000130: 39c9 8eb9 9645 39bc 54c1 8f3d 0e00 9a3e
00000140: e573 4ebc 8f88 653b e809 83bc 72b0 96bc
00000150: e38a d03d 5a6a 8a3e 1312 163e c9bd a53e
00000160: d985 143e 589b f23d 77ff 333e ed02 023e
00000170: 6e77 0b3d f982 d23e 7c86 0c3e ae5a acbe
00000180: b115 803d 3144 703e a00a 053e 6de5 92be
00000190: c6a9 663a fdc0 983e af4a a93e 1ccd e43d
000001a0: e71c 063e 1abd 98be e099 9b3d bd8f fe3d
000001b0: 9b40 92bc 9c53 97bd cd09 813b 3dfc 473e
000001c0: 9dd8 98bc fb4a ec3d b64f 04be 4365 4f3e
000001d0: e74d 80bc 6356 60bc e1d8 c4bc 11ba a83e
000001e0: 8c1e 243c 88af 4bbd 3c44 da3d 668b b03d
000001f0: e8f0 d23d 7ea9 833d 417a 29bb fb74 203e

dense/kernel/transpose f4 [128, 784]
-0.037730776 -0.032647323 0.05954633 -0.004534837 0.00599173 0.013609333 -0.05493091 -0.09388396
0.1905437 0.06241418 0.14433256 0.018746886 0.05796734 0.08479721 0.18056938 0.10695685
0.052652895 -0.019607943 0.006678814 0.2556398 0.110884026 0.037262943 0.048664454 -0.019399393
0.018649371 -0.09640725 0.060068678 0.027923586 -0.05449581 -0.047153197 -0.12806189 -0.036228377
-0.07873295 -0.1456047 -0.12891093 -0.16498795 -0.08882568 -0.10869657 -0.023290833 0.085109524
-0.06963326 0.088318884 0.10366933 0.072052196 0.07832278 0.019433454 -0.077208534 -0.08188748
-0.06741292 -0.19161035 -0.15844373 0.029085962 -0.021301454 0.03945895 0.029958079 0.052679874
-0.06860624 -0.052114002 -0.026651056 2.700324e-05 -0.09582959 -0.1746224 -0.27304965 -0.219791
-0.19461946 -0.07334606 -0.046835538 -0.009844294 -0.04209756 0.08951412 -0.047101077 0.105426304
0.0179443 0.06606766 -0.04314907 -0.05244143 -0.11497073 -0.20202781 -0.12829489 -0.1487844
-0.07176533 -0.036602117 0.038080785 0.02578066 -0.09475227 -0.03207624 -0.09445351 -0.013327057
-0.099766865 -0.08154808 -0.17551649 0.009368112 -0.11886698 -0.0008226947 0.034788307 0.00659765
-0.03881219 -0.01685962 0.053971462 0.024899196 -0.09428777 0.026075063 -0.02178189 0.045877557
0.03223109 -0.06708514 -0.05975202 -0.082187064 -0.086311646 0.016186528 -0.01881821 0.04208981
0.0089381505 -0.008165264 0.0016154558 -0.06030259 -0.14262754 -0.16074361 -0.074104965 -0.090505116
0.005458359 0.095849305 -0.015069189 -0.054934748 -9.260709e-05 0.015244504 0.044150412 0.077964
-0.034911647 -0.109427854 -0.07057283 -0.02557428 -0.00703088 -9.64144e-05 -0.08347789 -0.06667525
-0.08141112 -0.082327284 0.019621003 -0.07368286 -0.050974496 -0.08076554 -0.0053903963 -0.09087392
-0.07367225 -0.025866395 -0.00939842 0.05750541 -0.023416156 0.022873148 -0.014075311 0.08192386
0.054208532 0.09892586 0.08915465 -0.003073381 -0.058066625 -0.039803572 0.012481657 0.02712342
-0.05206557 -0.107162975 -0.20416832 -0.09622256 -0.12870334 -0.05631606 0.03635405 -0.010144094
-0.16133864 -0.097373486 -0.1259571 -0.110002615 -0.09291268 -0.10731874 -0.07369014 0.025061399
0.10115552 0.069587536 -0.044961046 0.03922885 -0.028690668 0.063010484 0.10971942 0.052078426
0.040807314 0.058753274 -0.027786605 0.027136862 -0.005558164 -0.061483365 -0.12401031 -0.17601761
-0.17750384 -0.20102349 -0.049471285 -0.06296225 -0.036341663 -0.05431975 0.024497736 -0.038985506
-0.055752948 -0.04202945 -0.063355274 0.063911185 0.10336568 0.10980168 0.033338383 -0.032301188
-0.039441124 0.049105905 0.017222295 0.048774134 -0.07539371 0.060853615 0.066221975 -0.015996877
-0.007696091 -0.14656317 -0.16390805 -0.20922813 -0.2228313 -0.11428336 -0.2592761 -0.09846735
-0.07389145 -0.058497746 -0.054628942 -0.086718045 -0.11972032 -0.15686743 -0.001605799 0.03518861
0.09144091 0.08510841 0.05147619 -0.06065425 0.04225514 -0.040086687 0.049537316 -0.088000484
-0.04575841 0.07564327 0.09913029 0.10539283 -0.094918765 -0.10292658 -0.095017344 -0.132696
-0.12161251 -0.22640175 -0.17023352 -0.014018569 -0.070587985 0.0530134 0.006282661 -0.025407502
00000000: 968b 1abd 33b9 05bd dae6 733d f898 94bb
00000010: 4656 c43b aef9 5e3c 3cff 60bd 3c46 c0bd
00000020: e31d 433e 03a6 7f3d eacb 133e 1293 993c
00000030: 296f 6d3d 29aa ad3d 2ee7 383e 310c db3d
00000040: 90aa 573d d6a0 a0bc f4d9 da3b 38e3 823e
00000050: 2a17 e33d 07a1 183d 6154 473d 7aeb 9ebc
00000060: 91c6 983c 2a71 c5bd 930a 763d 01c0 e43c
00000070: 0037 5fbd b623 41bd a822 03be 3564 14bd
00000080: be3e a1bd 6619 15be 3a01 04be 9af2 28be
00000090: 3dea b5bd 4f9c debd 6bcc bebc e74d ae3d
000000a0: e29b 8ebd 88e0 b43d 9650 d43d 1a90 933d
000000b0: b267 a03d e832 9f3c 821f 9ebd a0b4 a7bd
000000c0: c90f 8abd 8135 44be 133f 22be af45 ee3c
000000d0: 6380 aebc b59f 213d a56a f53c dac6 573d
000000e0: 6e81 8cbd 7e75 55bd 5153 dabc 0485 e237
000000f0: 4e42 c4bd 37d0 32be 2acd 8bbe e410 61be
00000100: 534a 47be 7636 96bd 9fd6 3fbd f649 21bc
00000110: 7e6e 2cbd 2e53 b73d 0fed 40bd bfe9 d73d
00000120: edff 923c 7b4e 873d 14bd 30bd d3cc 56bd
00000130: c675 ebbd 61e0 4ebe bc5f 03be f05a 18be
00000140: b4f9 92bd 1aec 15bd 99fa 1b3d f631 d33c
00000150: 7a0d c2bd 6062 03bd d870 c1bd ba59 5abc
00000160: 9252 ccbd ae02 a7bd 98ba 33be b67c 193c
00000170: 8870 f3bd 1baa 57ba 2f7e 0e3d 1931 d83b
00000180: 88f9 1ebd 301d 8abc 2e11 5d3d 66f9 cb3c
00000190: f219 c1bd 5f9b d53c ef6f b2bc 1bea 3b3d
000001a0: bf04 043d ef63 89bd 89be 74bd b151 a8bd
000001b0: 29c4 b0bd 9c99 843c a628 9abc 5d66 2c3d
000001c0: 5271 123c 99c7 05bc b4bd d33a d9ff 76bd
000001d0: f40c 12be f999 24be 58c4 97bd bf5a b9bd
000001e0: 09dc b23b a44c c43d c2e4 76bc 4203 61bd
000001f0: 0e36 c2b8 16c4 793c 10d7 343d 97ab 9f3d
00000200: 84ff 0ebd b61b e0bd 7d88 90bd 2781 d1bc
00000210: 4c63 e6bb 1632 cab8 75f6 aabd 098d 88bd
00000220: e0ba a6bd 359b a8bd 3abc a03c 0ae7 96bd
00000230: a2ca 50bd 6768 a5bd eca1 b0bb 1b1c babd
00000240: 7ae1 96bd c3e5 d3bc d5fb 19bc cb8a 6b3d
00000250: 3dd3 bfbc 7860 bb3c 229c 66bc b2c7 a73d
00000260: c409 5e3d a499 ca3d b796 b63d c76a 49bb
00000270: 45d7 6dbd 1209 23bd dd7f 4c3c ef31 de3c
00000280: b542 55bd 4378 dbbd 8011 51be 5510 c5bd
00000290: cfca 03be abab 66bd fce7 143d 6a33 26bc
000002a0: f535 25be c06b c7bd e6fa 00be 0d49 e1bd
000002b0: 0149 bebd edc9 dbbd dbea 96bd 904d cd3c
000002c0: a02a cf3d e983 8e3d 1329 38bd 6eae 203d
000002d0: b108 ebbc a40b 813d 93b4 e03d 3050 553d
000002e0: 9225 273d 46a7 703d bca0 e3bc 204e de3c
000002f0: 4221 b6bb fbd5 7bbd 1ef9 fdbd f63d 34be
00000300: 91c3 35be 1ad9 4dbe 67a2 4abd 5af2 80bd
00000310: ffda 14bd 637e 5ebd 7aaf c83c 44af 1fbd
00000320: 345d 64bd 1327 2cbd 69c0 81bd dee3 823d
00000330: 63b1 d33d b4df e03d d48d 083d 404e 04bd
00000340: 048d 21bd 4623 493d c515 8d3c 63c7 473d
00000350: 0468 9abd a441 793d 639f 873d e20b 83bc
00000360: 7e2f fcbb a814 16be 83d7 27be e63f 56be
00000370: e32d 64be 650d eabd d6bf 84be 40a9 c9bd
00000380: 6754 97bd 559b 6fbd 99c2 5fbd 3b99 b1bd
00000390: ed2f f5bd dba1 20be ac79 d2ba ef21 103d
000003a0: 5f45 bb3d 514d ae3d b3d8 523d 9770 78bd
000003b0: ba13 2d3d f031 24bd a4e7 4a3d 9939 b4bd
000003c0: 2c6d 3bbd dcea 9a3d d204 cb3d 32d8 d73d
000003d0: c564 c2bd 2ccb d2bd 7498 c2bd 76e1 07be
000003e0: fb0f f9bd dcd5 67be b251 2ebe 24ae 65bc
000003f0: 6f90 90bd 9424 593d c8de cd3b 6523 d0bc

dense_1/MatMul_bias f4 [10]
0.042739764 -0.22703587 0.078880124 0.11481634 -0.19208305 0.23967099 0.07165811 0.05927185
-0.13077055 -0.27677417
00000000: e40f 2f3d 177c 68be e78b a13d d424 eb3d
00000010: 6bb1 44be 506c 753e 7dc1 923d 0ac7 723d
00000020: b7e8 05be 58b5 8dbe

dense_1/kernel/transpose f4 [10, 128]
-0.16840066 0.18799105 -0.28649485 -0.2026805 0.16709165 0.002265934 0.14060794 0.08414682
-0.0010991878 -0.08880257 -0.11130778 -0.11553842 -0.1733072 -0.007864423 0.06943721 -0.13340013
0.069128364 0.040206026 0.06517899 0.15304774 0.11856282 -0.06229105 -0.00040058166 -0.09538191
0.20671968 0.08550073 0.07007726 -0.007992 0.02440054 0.15164696 0.12926091 0.16223983
0.06311438 -0.16561526 0.13295294 -0.26942602 -0.030857105 -0.28452188 0.10434839 0.045885827
0.025677728 0.3319574 -0.17309035 -0.103656515 -0.09830061 -0.007429897 0.008693109 -0.13199647
0.07794148 0.13221015 0.06169034 -0.037538223 -0.43466827 0.027267894 -0.12375941 0.15261546
0.00996549 -0.07585857 -0.38694474 0.0696617 0.039725084 0.09399565 -0.008250114 0.14976992
0.14487791 -0.039546642 0.06610144 -0.27760407 -0.2186399 0.02362619 0.089396395 -0.17911513
-0.12407334 0.13368633 0.028653927 -0.068293944 -0.15405281 0.1342339 -0.1755652 0.18622468
-0.13292626 -0.0074921 0.11160598 -0.16403076 0.02338733 -0.10308726 -0.047430895 -0.038077556
-0.028947184 0.022657534 -0.25894073 -0.28474426 -0.11218098 -0.117034465 0.16750522 -0.11679518
-0.13380274 -0.20999059 0.107587636 0.012225117 0.10415306 0.15563972 0.17485015 -0.013364168
-0.0016607667 -0.18456295 -0.07617442 0.1520017 0.023495337 0.028172877 0.012183277 0.0411679
0.19196613 -0.16433187 0.08549891 -0.16063565 0.14943619 -0.14476699 -0.15485811 -0.11252574
0.020993967 0.12502025 0.06415635 0.12121639 -0.18443054 -0.161082 0.04372163 -0.1342503
0.29196054 -0.19061875 0.22539984 -0.16351406 -0.14046302 0.09594512 0.10357497 0.093409784
-0.19262457 -0.07768709 -0.03376387 0.2684937 0.23077126 -0.12227552 0.1105725 -0.33343065
-0.2376695 -0.063624464 -0.05124043 -0.25551283 -0.054089747 -0.27149153 -0.17988937 -0.21132195
0.06824944 0.17331454 0.27771845 0.08170826 0.025825996 0.19689631 -0.0011232737 0.040743873
-0.20915386 0.048782833 -0.3293418 -0.23960507 0.011434849 -0.365532 0.09455024 0.13537055
-0.057961237 -0.0038645272 -0.15874176 0.00815188 0.17397536 -0.048208963 -0.28426293 0.127924
0.3715059 -0.28230536 0.2328136 -0.31333885 0.09226696 -0.1617726 0.08908079 0.18744293
-0.05041597 -0.2356617 -0.5760772 -0.0065916744 -0.51131797 -0.1430183 0.14165035 -0.13650003
0.23856156 0.28735211 -0.36628184 -0.17933936 -0.01398165 -0.57045126 0.1106859 -0.2411433
0.30617735 -0.059876066 0.15875143 0.0728606 0.29656222 -0.18164998 0.0160048 0.10942182
-0.14945759 -0.05622576 0.14073688 0.14712103 0.18506 -0.47432065 0.01524405 -0.039464124
0.119552635 -0.19361313 -0.37350988 0.0737238 0.3309612 -0.25382656 -0.23675816 0.20210114
-0.23605424 -0.3871058 -0.27808657 0.37965795 -0.14340305 -0.15756561 -0.06384062 -0.23518062
0.025104655 0.29571682 -0.37776285 -0.21163984 -0.27419809 0.07024843 -0.06719917 0.056786396
-0.1333824 -0.27579093 0.17038758 -0.17406334 -0.13349716 -0.0602204 0.07620207 -0.19852039
-0.19642621 -0.018045513 0.08082361 -0.17071265 -0.2610446 0.015584441 -0.3199197 -0.3905589
00000000: 3971 2cbe ba80 403e 74af 92be 7a8b 4fbe
00000010: 131a 2b3e 1080 143b 87fb 0f3e 2b55 ac3d
00000020: 9f12 90ba 1fde b5bd 55f5 e3bd 689f ecbd
00000030: 7177 31be c8d9 00bc 1935 8e3d 0b9a 08be
00000040: 2c93 8d3d 13af 243d 907c 853d 8cb8 1c3e
00000050: 10d1 f23d e624 7fbd 2905 d2b9 9757 c3bd
00000060: 53ae 533e 021b af3d ab84 8f3d e1f0 02bc
00000070: a4e3 c73c 5749 1b3e f95c 043e 3322 263e
00000080: 1d42 813d 0c97 29be d124 083e 35f2 89be
00000090: 0ac8 fcbc daac 91be 9cb4 d53d c7f2 3b3d
000000a0: 195a d23c 52f6 a93e 993e 31be de49 d4bd
000000b0: d551 c9bd 7e76 f3bb 8b6d 0e3c 152a 07be
000000c0: c89f 9f3d 1962 073e 03af 7c3d aec1 19bd
000000d0: d78c debe eb60 df3c 9375 fdbd 3a47 1c3e
000000e0: 4b46 233c bd5b 9bbd 9f1d c6be cbaa 8e3d
000000f0: c5b6 223d cb80 c03d 7c2b 07bc 495d 193e
00000100: e05a 143e a9fb 21bd 3160 873d 1f22 8ebe
00000110: 23e3 5fbe b68b c13c 7515 b73d f569 37be
00000120: 2a1a febd 12e5 083e a4bb ea3c b2dd 8bbd
00000130: 05c0 1dbe 9d74 093e 5dc7 33be afb1 3e3e
00000140: d21d 08be 4a80 f5bb ad91 e43d aef7 27be
00000150: c996 bf3c 6a1f d3bd e646 42bd 36f7 1bbd
00000160: a522 edbc 4b9c b93c e193 84be 00ca 91be
00000170: 24bf e5bd c4af efbd 7d86 2b3e 5032 efbd
00000180: 9603 09be c607 57be e856 dc3d db4b 483c
00000190: 334e d53d 0560 1f3e eb0b 333e 62f5 5abc
000001a0: 15ae d9ba 12fe 3cbe 5601 9cbd 55a6 1b3e
000001b0: 4b79 c03c ceca e63c 5e9c 473c ac9f 283d
000001c0: c592 443e 9d46 28be 0d1a af3d ac7d 24be
000001d0: cd05 193e cc3d 14be 2093 1ebe e573 e6bd
000001e0: 8afb ab3c 4f05 003e 6864 833d 4c40 f83d
000001f0: 5cdb 3cbe aef2 24be 7415 333d e978 09be
00000200: da7b 953e 9031 43be 37cf 663e 3b70 27be
00000210: 8ad5 0fbe e07e c43d 1d1f d43d a14d bf3d
00000220: 603f 45be 691a 9fbd fc4b 0abd 0278 893e
00000230: 4d4f 6c3e 966b fabd d673 e23d 6cb7 aabe
00000240: a25f 73be 8b4d 82bd 7ce1 51bd 94d2 82be
00000250: 368d 5dbd f000 8bbe eb34 38be c864 58be
00000260: 5dc6 8b3d 5e79 313e 1d31 8e3e a956 a73d
00000270: 0a91 d33c 309f 493e d03a 93ba 0ce3 263d
00000280: 6e2c 56be 82d0 473d 7d9f a8be 085b 75be
00000290: 3c59 3b3c 0327 bbbe 8ea3 c13d 949e 0a3e
000002a0: c368 6dbd 0244 7dbb 338d 22be 778f 053c
000002b0: 9926 323e c376 45bd e98a 91be 82fe 023e
000002c0: 0536 be3e 548a 90be b066 6e3e f36d a0be
000002d0: 76f6 bc3d b7a7 25be fd6f b63d 0af1 3f3e
000002e0: fa80 4ebd 4d51 71be cc79 13bf f9fe d7bb
000002f0: bce5 02bf 6473 12be ca0c 113e aac6 0bbe
00000300: 7b49 743e d11f 933e 4b89 bbbe bda4 37be
00000310: 4a13 65bc 1809 12bf 4aaf e23d 45ee 76be
00000320: 47c3 9c3e 9b40 75bd bc8f 223e f037 953d
00000330: 01d7 973e 7402 3abe 801c 833c 8c18 e03d
00000340: 690b 19be fc4c 66bd 541d 103e e5a6 163e
00000350: 5e80 3d3e 28da f2be 2ec2 793c 22a5 21bd
00000360: 03d8 f43d 8542 46be b03c bfbe 81fc 963d
00000370: bf73 a93e 8ef5 81be bb70 72be 9af3 4e3e
00000380: 34b8 71be bb32 c6be 5d61 8ebe 8762 c23e
00000390: 40d8 12be e158 21be dfbe 82bd 30d3 70be
000003a0: 47a8 cd3c 3268 973e 226a c1be 1db8 58be
000003b0: b163 8cbe 69de 8f3d b89f 89bd da98 683d
000003c0: 6595 08be 7834 8dbe 157a 2e3e a93d 32be
000003d0: 7bb3 08be aba9 76bd d50f 9c3d ee48 4bbe
000003e0: f423 49be 2fd4 93bc d986 a53d 4ccf 2ebe
000003f0: a3a7 85be e255 7f3c 84cc a3be 56f7 c7be
